…
, num_iterations=500000, num_train_samples=None, num_val_samples=1024, output_dir='./checkpoints', predicate_pred_loss_weight=0, print_every=10000, refinement_network_dims=(1024, 512, 256, 128, 64), restore_from_checkpoint=False, shuffle_val=True, stuff_whitelist=None, timing=False, train_h5='datasets/vg_curated/train.h5', use_boxes_pred_after=-1, val_h5='datasets/vg_curated/val.h5', vg_image_dir='/home/maelic/Documents/PhD/Datasets/VisualGenome/VG_100K', vg_use_orphaned_objects=True, vocab_json='datasets/vg_curated/vocab.json')
There are 3726 iterations per epoch
Sg2ImModel(
  (obj_embeddings): Embedding(150, 128)
  (pred_embeddings): Embedding(50, 128)
  (gconv): GraphTripleConv(
    (net1): Sequential(
      (0): Linear(in_features=384, out_features=512, bias=True)
      (1): ReLU()
      (2): Linear(in_features=512, out_features=1152, bias=True)
      (3): ReLU()
    )
    (net2): Sequential(
      (0): Linear(in_features=512, out_features=512, bias=True)
      (1): ReLU()
      (2): Linear(in_features=512, out_features=128, bias=True)
      (3): ReLU()
    )
  )
  (gconv_net): GraphTripleConvNet(
    (gconvs): ModuleList(
      (0): GraphTripleConv(
        (net1): Sequential(
          (0): Linear(in_features=384, out_features=512, bias=True)
          (1): ReLU()
          (2): Linear(in_features=512, out_features=1152, bias=True)
          (3): ReLU()
        )
        (net2): Sequential(
          (0): Linear(in_features=512, out_features=512, bias=True)
          (1): ReLU()
          (2): Linear(in_features=512, out_features=128, bias=True)
          (3): ReLU()
        )
      )
      (1): GraphTripleConv(
        (net1): Sequential(
          (0): Linear(in_features=384, out_features=512, bias=True)
          (1): ReLU()
          (2): Linear(in_features=512, out_features=1152, bias=True)
          (3): ReLU()
        )
        (net2): Sequential(
          (0): Linear(in_features=512, out_features=512, bias=True)
          (1): ReLU()
          (2): Linear(in_features=512, out_features=128, bias=True)
          (3): ReLU()
        )
      )
      (2): GraphTripleConv(
        (net1): Sequential(
          (0): Linear(in_features=384, out_features=512, bias=True)
          (1): ReLU()
          (2): Linear(in_features=512, out_features=1152, bias=True)
          (3): ReLU()
        )
        (net2): Sequential(
          (0): Linear(in_features=512, out_features=512, bias=True)
          (1): ReLU()
          (2): Linear(in_features=512, out_features=128, bias=True)
          (3): ReLU()
        )
      )
      (3): GraphTripleConv(
        (net1): Sequential(
          (0): Linear(in_features=384, out_features=512, bias=True)
          (1): ReLU()
          (2): Linear(in_features=512, out_features=1152, bias=True)
          (3): ReLU()
        )
        (net2): Sequential(
          (0): Linear(in_features=512, out_features=512, bias=True)
          (1): ReLU()
          (2): Linear(in_features=512, out_features=128, bias=True)
          (3): ReLU()
        )
      )
    )
  )
  (box_net): Sequential(
    (0): Linear(in_features=128, out_features=512, bias=True)
    (1): ReLU()
    (2): Linear(in_features=512, out_features=4, bias=True)
    (3): ReLU()
  )
  (mask_net): Sequential(
    (0): Upsample(scale_factor=2.0, mode=nearest)
    (1): BatchNorm2d(128, eps=1e-05, momentum=0.1, affine=True, track_running_stats=True)
    (2): Conv2d(128, 128, kernel_size=(3, 3), stride=(1, 1), padding=(1, 1))
    (3): ReLU()
    (4): Upsample(scale_factor=2.0, mode=nearest)
    (5): BatchNorm2d(128, eps=1e-05, momentum=0.1, affine=True, track_running_stats=True)
    (6): Conv2d(128, 128, kernel_size=(3, 3), stride=(1, 1), padding=(1, 1))
    (7): ReLU()
    (8): Upsample(scale_factor=2.0, mode=nearest)
    (9): BatchNorm2d(128, eps=1e-05, momentum=0.1, affine=True, track_running_stats=True)
    (10): Conv2d(128, 128, kernel_size=(3, 3), stride=(1, 1), padding=(1, 1))
    (11): ReLU()
    (12): Upsample(scale_factor=2.0, mode=nearest)
    (13): BatchNorm2d(128, eps=1e-05, momentum=0.1, affine=True, track_running_stats=True)
    (14): Conv2d(128, 128, kernel_size=(3, 3), stride=(1, 1), padding=(1, 1))
    (15): ReLU()
    (16): Conv2d(128, 1, kernel_size=(1, 1), stride=(1, 1))
  )
  (rel_aux_net): Sequential(
    (0): Linear(in_features=264, out_features=512, bias=True)
    (1): ReLU()
    (2): Linear(in_features=512, out_features=50, bias=True)
    (3): ReLU()
  )
  (refinement_net): RefinementNetwork(
    (refinement_modules): ModuleList(
      (0): RefinementModule(
        (net): Sequential(
          (0): Conv2d(161, 1024, kernel_size=(3, 3), stride=(1, 1), padding=(1, 1))
          (1): BatchNorm2d(1024, eps=1e-05, momentum=0.1, affine=True, track_running_stats=True)
          (2): LeakyReLU(negative_slope=0.2)
          (3): Conv2d(1024, 1024, kernel_size=(3, 3), stride=(1, 1), padding=(1, 1))
          (4): BatchNorm2d(1024, eps=1e-05, momentum=0.1, affine=True, track_running_stats=True)
          (5): LeakyReLU(negative_slope=0.2)
        )
      )
      (1): RefinementModule(
        (net): Sequential(
          (0): Conv2d(1184, 512, kernel_size=(3, 3), stride=(1, 1), padding=(1, 1))
          (1): BatchNorm2d(512, eps=1e-05, momentum=0.1, affine=True, track_running_stats=True)
          (2): LeakyReLU(negative_slope=0.2)
          (3): Conv2d(512, 512, kernel_size=(3, 3), stride=(1, 1), padding=(1, 1))
          (4): BatchNorm2d(512, eps=1e-05, momentum=0.1, affine=True, track_running_stats=True)
          (5): LeakyReLU(negative_slope=0.2)
        )
      )
      (2): RefinementModule(
        (net): Sequential(
          (0): Conv2d(672, 256, kernel_size=(3, 3), stride=(1, 1), padding=(1, 1))
          (1): BatchNorm2d(256, eps=1e-05, momentum=0.1, affine=True, track_running_stats=True)
          (2): LeakyReLU(negative_slope=0.2)
          (3): Conv2d(256, 256, kernel_size=(3, 3), stride=(1, 1), padding=(1, 1))
          (4): BatchNorm2d(256, eps=1e-05, momentum=0.1, affine=True, track_running_stats=True)
          (5): LeakyReLU(negative_slope=0.2)
        )
      )
      (3): RefinementModule(
        (net): Sequential(
          (0): Conv2d(416, 128, kernel_size=(3, 3), stride=(1, 1), padding=(1, 1))
          (1): BatchNorm2d(128, eps=1e-05, momentum=0.1, affine=True, track_running_stats=True)
          (2): LeakyReLU(negative_slope=0.2)
          (3): Conv2d(128, 128, kernel_size=(3, 3), stride=(1, 1), padding=(1, 1))
          (4): BatchNorm2d(128, eps=1e-05, momentum=0.1, affine=True, track_running_stats=True)
          (5): LeakyReLU(negative_slope=0.2)
        )
      )
      (4): RefinementModule(
        (net): Sequential(
          (0): Conv2d(288, 64, kernel_size=(3, 3), stride=(1, 1), padding=(1, 1))
          (1): BatchNorm2d(64, eps=1e-05, momentum=0.1, affine=True, track_running_stats=True)
          (2): LeakyReLU(negative_slope=0.2)
          (3): Conv2d(64, 64, kernel_size=(3, 3), stride=(1, 1), padding=(1, 1))
          (4): BatchNorm2d(64, eps=1e-05, momentum=0.1, affine=True, track_running_stats=True)
          (5): LeakyReLU(negative_slope=0.2)
        )
      )
    )
    (output_conv): Sequential(
      (0): Conv2d(64, 64, kernel_size=(3, 3), stride=(1, 1), padding=(1, 1))
      (1): LeakyReLU(negative_slope=0.2)
      (2): Conv2d(64, 3, kernel_size=(1, 1), stride=(1, 1))
    )
  )
)
Conv2d(3, 64, kernel_size=(4, 4), stride=(2, 2))
BatchNorm2d(64, eps=1e-05, momentum=0.1, affine=True, track_running_stats=True)
LeakyReLU(negative_slope=0.2)
Conv2d(64, 128, kernel_size=(4, 4), stride=(2, 2))
BatchNorm2d(128, eps=1e-05, momentum=0.1, affine=True, track_running_stats=True)
LeakyReLU(negative_slope=0.2)
Conv2d(128, 256, kernel_size=(4, 4), stride=(2, 2))
Conv2d(3, 64, kernel_size=(4, 4), stride=(2, 2))
BatchNorm2d(64, eps=1e-05, momentum=0.1, affine=True, track_running_stats=True)
LeakyReLU(negative_slope=0.2)
Conv2d(64, 128, kernel_size=(4, 4), stride=(2, 2))
BatchNorm2d(128, eps=1e-05, momentum=0.1, affine=True, track_running_stats=True)
LeakyReLU(negative_slope=0.2)
Conv2d(128, 256, kernel_size=(4, 4), stride=(2, 2))
AcCropDiscriminator(
  (discriminator): AcDiscriminator(
    (cnn): Sequential(
      (0): Sequential(
        (0): Conv2d(3, 64, kernel_size=(4, 4), stride=(2, 2))
        (1): BatchNorm2d(64, eps=1e-05, momentum=0.1, affine=True, track_running_stats=True)
        (2): LeakyReLU(negative_slope=0.2)
        (3): Conv2d(64, 128, kernel_size=(4, 4), stride=(2, 2))
        (4): BatchNorm2d(128, eps=1e-05, momentum=0.1, affine=True, track_running_stats=True)
        (5): LeakyReLU(negative_slope=0.2)
        (6): Conv2d(128, 256, kernel_size=(4, 4), stride=(2, 2))
      )
      (1): GlobalAvgPool()
      (2): Linear(in_features=256, out_features=1024, bias=True)
    )
    (real_classifier): Linear(in_features=1024, out_features=1, bias=True)
    (obj_classifier): Linear(in_features=1024, out_features=149, bias=True)
  )
)
PatchDiscriminator(
  (cnn): Sequential(
    (0): Conv2d(3, 64, kernel_size=(4, 4), stride=(2, 2))
    (1): BatchNorm2d(64, eps=1e-05, momentum=0.1, affine=True, track_running_stats=True)
    (2): LeakyReLU(negative_slope=0.2)
    (3): Conv2d(64, 128, kernel_size=(4, 4), stride=(2, 2))
    (4): BatchNorm2d(128, eps=1e-05, momentum=0.1, affine=True, track_running_stats=True)
    (5): LeakyReLU(negative_slope=0.2)
    (6): Conv2d(128, 256, kernel_size=(4, 4), stride=(2, 2))
  )
  (classifier): Conv2d(256, 1, kernel_size=(1, 1), stride=(1, 1))
)
Starting epoch 1
